Artifical Inteligence Projects/AI ChatBot/Trent Bot/data.pth (torch, 10218 bytes, 6 tensors)

l1.weight f4 [8, 150]
00000000: c7c5 353d 9337 473f 952c 593f 5970 5d3f
00000010: 1178 833f 8d92 dd3e a1d5 103f aeb1 833f
00000020: a0fc fe3e eed8 5cbf f425 10bc b93b 30be
00000030: e843 b83e c345 083f 65e1 21bf 244e ed3e
00000040: e2b8 a4be e454 aa3e 60ce a6be f671 90be
00000050: 0a8a 003f 1e5b 443f c093 353e bf78 c53e
00000060: 9e2e 7f3e 4cf3 4b3f 7260 3a3f 0516 493f
00000070: 61af c13e b84c 063f 803b 063f 8829 db3e
00000080: da81 1b3f b73b 0cbf 6ac9 4c3e 7771 623f
00000090: 7fe4 21bf a201 78be a145 bd3f 9600 053f
000000a0: 4284 3d3f 2c09 b03e 1422 ac3f 6ff1 dd3e
000000b0: 9c35 cbbe d1f6 ef3e 74d8 21bf 493e 463f
000000c0: 9f37 eb3e 769a 41be 7104 84be f623 b2be
000000d0: fd7a b9be 8ecd 083f 2bf3 c23e ea78 ee3e
000000e0: 742f f93e d48c 8d3d 86f5 fc3e af10 723d
000000f0: 02e5 c03d ef00 233f 3925 943f 5ee0 c93e
00000100: fc60 ab3f 39f0 4d3e 5bcb 003f 1175 4b3f
00000110: 82c0 edbe c238 1bbe 8b3c 743f b5a4 94be
00000120: 5d16 0bbf ba34 dc3e 5a17 19bf efd3 a3be
00000130: c9ca d43d a154 633f ffef babd 3c1f 41bd
00000140: 3aed 4f3f 7742 463f 2b52 343f f070 4b3f
00000150: d710 08bf fc8e 95be a069 303f 5a05 013e
00000160: b67c 92bd a7dc b53e 15fa 30bf a09e c13e
00000170: 7530 aebe cffb 0a3e 9ff0 183e 8aa6 1b3f
00000180: faf0 0fbd 6195 343d 6a54 c63d 9f23 973e
00000190: e057 c83e a628 4d3f 4816 12bf d3f8 123f
000001a0: 0192 1b3f 0c07 103e 3851 063e c628 513e
000001b0: d61a 9b3e 5d40 95be 1aa0 ed3e 2234 fe3e
000001c0: ca42 6e3f 2887 0fbe c4e8 153f ec42 9c3e
000001d0: fc44 db3e 37c0 fd3e c4cc 8dbf 958a 8b3e
000001e0: 94f9 2f3f d91c 9dbe c43f 5dbe b923 0d3f
000001f0: 0a2a 6c3f 79ad 30bf 79c3 533f 66ab fe3d
00000200: dbe0 903f c52c 22bf c543 8b3f 5ef2 aabc
00000210: ccbc 5b3f 487e 9a3f 1fe4 2cbe e782 d0be
00000220: 7129 6d3f aeba 8e3e baa7 243f 452f 2e3f
00000230: f94a c43e 12ad 333f 01fe 813f 14e7 0b3f
00000240: 390e 063e 3fca 3dbf fecd 4bbf 80f6 793e
00000250: 97ca 803e acc8 f43d 7365 8dbd cd5e 733f
00000260: 8da4 fe3e 0921 fe3e 651d 233f a12a a33e
00000270: a421 6bbf 6fc3 bcbe 478c 1a3f 5ac7 a03f
00000280: 0034 ae3c 8a68 0c3f c378 b83e 98b5 f83e
00000290: 51aa 23bf d6ad 073f c248 243f e459 383d
000002a0: 372d 7ebe bcd9 81be c789 063f bd5c fc3e
000002b0: a0da d23e fbd8 41bc fa4d 1dbf 1661 e63d
000002c0: cfb2 ea3d 9eb2 143f 1db4 933e a950 f23c
000002d0: 8e4e d83d bdd1 1e3f c59d 143e 32be 80bf
000002e0: 1bae 533e 8ccf 943f c222 1cbf f198 d8be
000002f0: 4658 e6be 32d6 1e3f a1ff be3d 94ae 233e
00000300: 27ec f6be 9afe c23e a786 aabe 32f2 d33e
00000310: 7255 12bf 7560 f4bd f648 543f 8a52 0b3f
00000320: a4dc ebbe 17fb 54bd 803b 00bf b93e 5c3f
00000330: 5a17 083f 05f1 633f 9fcf 4e3f c4b7 91be
00000340: e7af 483f af39 8dbd c75b e73d 0639 acbd
00000350: 9593 783c ce3d e8bd 53df 41bf f4b8 0fbf
00000360: 8c86 133f 08f5 f2be d1a9 6abe b674 18be
00000370: e091 91be e825 7dbe 0c76 7abe 7eab a2be
00000380: 19ac 323e 890f f0bd 39d5 283f 8202 97be
00000390: 808d c53e a36f 493e aab1 f3be 2126 513f
000003a0: 8139 83be 2d36 3f3f d1ac ec3e 5539 133f
000003b0: aaf7 49bf 4b9a 2dbf c8d1 bdbc 93d4 4c3e
000003c0: 3985 44bf 42ac 113e 4187 173f 237a 343e
000003d0: c470 21bf d040 553e e9cd 323e 127d d93e
000003e0: b1cb 8e3e 434c aa3c 2e72 173f abff 953f
000003f0: e9ac a6be 9ac4 a23e b399 1b3f d17f 33bf
0.04437807 0.77819175 0.8483365 0.86499554 1.0271016 0.43275872 0.5657597 1.0288599
0.49802113 -0.8626851 -0.008798111 -0.17210282 0.35989308 0.5323145 -0.6323455 0.4634868
-0.32172304 0.3326789 -0.32579327 -0.28211945 0.5021063 0.76701534 0.17732143 0.38568684
0.24920127 0.79668117 0.72803414 0.78549224 0.37829116 0.52460814 0.5243454 0.42805123
0.6074501 -0.5477862 0.19998708 0.88454384 -0.6323928 -0.24219373 1.4786874 0.5195402
0.74029934 0.34381998 1.34479 0.43348262 -0.39689338 0.46867993 -0.63220906 0.7743879
0.45940873 -0.18906578 -0.2578464 -0.3479306 -0.36226645 0.5343865 0.38076147 0.46576625
0.48669016 0.069116265 0.4940607 0.059097942 0.0941868 0.636733 1.157386 0.3942899
1.3388972 0.20111169 0.50310296 0.79475504 -0.46435934 -0.1515837 0.9540488 -0.29031911
-0.54331 0.43008977 -0.59801257 -0.3199763 0.10390241 0.8880101 -0.09127807 -0.047148928
0.81221354 0.7744517 0.7043788 0.79469204 -0.53150696 -0.2921065 0.6891117 0.12599698
-0.07152693 0.35519907 -0.69131595 0.37816334 -0.34021345 0.1357262 0.1493554 0.60800993
-0.035141923 0.04408777 0.096840695 0.29519364 0.39129543 0.8014015 -0.5706525 0.57410926
0.6076966 0.14065188 0.1311692 0.2042571 0.30293912 -0.29150668 0.4641121 0.4964915
0.9307066 -0.14016402 0.585583 0.30519807 0.42826068 0.4956071 -1.1078115 0.27254167
0.687402 -0.30686072 -0.21606356 0.55132633 0.92251647 -0.690147 0.8272014 0.124350354
1.131862 -0.6334956 1.0880057 -0.020867523 0.85834956 1.2069788 -0.16883896 -0.4072487
0.9264136 0.278768 0.6431843 0.6804088 0.3833845 0.7018596 1.0155641 0.5464947
0.13091363 -0.7413673 -0.79611194 0.24410439 0.25154564 0.119523376 -0.069041155 0.9506653
0.49734917 0.4963458 0.6371673 0.3186846 -0.91848207 -0.36867854 0.60370296 1.2560837
0.02126503 0.54847014 0.36029634 0.48576045 -0.6393176 0.5299963 0.6417352 0.0450076
-0.24821936 -0.2536143 0.5255398 0.49289504 0.41182423 -0.011831517 -0.6144711 0.112489864
0.11459886 0.5808505 0.28848353 0.029579477 0.10561858 0.62038785 0.1451331 -1.0058043
0.20671885 1.1625838 -0.60990536 -0.42304185 -0.44989222 0.62045586 0.09326101 0.15984565
-0.48227045 0.3808487 -0.33305857 0.41395718 -0.5716163 -0.1193246 0.8292383 0.5442282
-0.46066773 -0.05199727 -0.5009079 0.8603321 0.5316063 0.8903964 0.80785555 -0.28460515
0.78393406 -0.06895768 0.11296802 -0.08409314 0.015171905 -0.11339913 -0.7573139 -0.5614159
0.5762718 -0.4745257 -0.22916342 -0.14888272 -0.28431606 -0.24721491 -0.24459094 -0.31771463
0.17448463 -0.11721713 0.6595035 -0.294941 0.38584518 0.19671492 -0.47596484 0.81698805
-0.2562981 0.7469204 0.46225598 0.57509357 -0.7889353 -0.6781356 -0.02317132 0.20002966
-0.7676578 0.14225867 0.59190756 0.17624716 -0.6306269 0.20825505 0.17461361 0.42478234
0.2788978 0.020788318 0.591586 1.1718649 -0.32553795 0.3179062 0.607814 -0.7011691

l1.bias f4 [8]
00000000: 654f 203f 4b68 543f ab76 e43e b49e b93e
00000010: 5cb9 813f 36ce 2e3f 2497 383f 3af6 803f
0.62621146 0.8297164 0.44621786 0.36253893 1.0134692 0.682834 0.7210562 1.0075142

l2.weight f4 [8, 8]
00000000: 56f6 6b3f b388 85be 7298 ddbf ac8d 3c3f
00000010: c0bd cb3f bfa3 4f3f abae bebf deec 5b3f
00000020: b479 b33f 944e b23f 4450 ee3e ee0e 7dbf
00000030: c1c1 9c3f 83fd 09bf 15d7 71bf 9436 26bf
00000040: 5960 a3be 8292 773f 2ae3 aa3f e891 a33f
00000050: fd3d 32bf 51ce ea3f df50 25be 6e80 e63f
00000060: 0180 a8bf d78e 8ebf 6ab5 fa3f 873e a6bf
00000070: d11a 653e de9c 0a3f f8ef 7e3f dc4a 003f
00000080: 6bcd d73f accd bf3e 8222 0940 4cb7 0540
00000090: 8a5c a9be dabf a83e e227 da3e 17ca bdbf
000000a0: 562b 9c3d 9184 ef3f 35dc 043f 7857 a63e
000000b0: 70c8 f8be 25af f7be 9fcc 0840 02d2 3c3f
000000c0: 68f4 9d3f 6a35 18bf cf48 253f bd55 4a3f
000000d0: fb4a a43f d96c 70be 70b9 8bbe 80ed d5bf
000000e0: b5a0 70be 2c26 64bf d86a a03b 644c 20be
000000f0: 9045 783f 96d6 b83f 9c4b 903f fd70 113e
0.92172754 -0.26080856 -1.7312148 0.73653674 1.5917282 0.8110923 -1.4897054 0.85908306
1.4021516 1.393023 0.46545613 -0.98850906 1.2246629 -0.53902453 -0.94468814 -0.6492703
-0.31909445 0.9670793 1.3350575 1.2778902 -0.69625837 1.8344213 -0.16144131 1.8007944
-1.3164064 -1.1137341 1.9586613 -1.2987832 0.22373511 0.5414561 0.99584913 0.50114226
1.6859564 0.37461603 2.1427312 2.0893126 -0.33078414 0.3295887 0.42608553 -1.4827298
0.07625453 1.8712331 0.5189851 0.32488608 -0.48590422 -0.48375812 2.137489 0.73757946
1.2340212 -0.59456503 0.6456422 0.79037076 1.2835382 -0.23479022 -0.27289915 -1.6713104
-0.23498805 -0.89120746 0.0048955493 -0.1565414 0.96981144 1.4440486 1.1273074 0.14203258

l2.bias f4 [8]
00000000: 2a0b 873f b2a4 0e3f dfa0 cd3e f805 b3be
00000010: c56b 9bbe 4e4e 163f 291a a5bc 7b3d 763e
1.0550282 0.55720055 0.40161797 -0.3496549 -0.3035566 0.58713233 -0.020154076 0.2404689

l3.weight f4 [19, 8]
00000000: 51cd 2abf 7737 09c0 a60e 133f 83dd 06c0
00000010: b26f 913d d3a5 30be 812f 50c0 9511 05bf
00000020: 5dd4 01be 276b e23b 4fa8 fdbf 4440 c0bd
00000030: 6d2d 46bf b63b 91bf fa95 ee3e d46a 3a3f
00000040: 31cf 1cc0 31c3 b43e 31e0 abbf 48b7 bfbf
00000050: 54eb a33e 6022 16bd c639 a43e a0b9 cfbf
00000060: a854 31c0 eeb0 89bf 8572 28be 0e5a 123d
00000070: 81bf 743d d9d0 8a3e 7bba 19c0 4207 c43d
00000080: 4e74 c5bf fba8 f9bf 90cf 0f3f f4e8 cd3f
00000090: 5ef5 fbbf 4d6f dbbe 48b1 2cc0 7975 053f
000000a0: 55e3 d8bf 12bc d5bf 4c29 093f 087f edbf
000000b0: 7243 02c0 2a0f a43f b60e 09c0 0af7 87bf
000000c0: d387 cd3e a040 1c3f be72 22bd ee4b d6bf
000000d0: 882f 04c0 75e5 04be eda1 b6bf 6d68 27bf
000000e0: e06b 3a3e 5fc9 403d fa71 18c0 0639 edbf
000000f0: b126 c03e f0fa 27c0 c84b 4c3f bdb1 cbbf
00000100: 8fc7 a7bf 27bb e1be 4c84 903e fecf 87c0
00000110: df4d 313f f610 30bf b8d7 bfbe e611 04c0
00000120: aa4f 3cbf b948 72bf 0c04 bdbf db0a 50c0
00000130: afb2 9cbe e0bf 473f 09f3 a1be 7a70 7e3e
00000140: 79f1 523f 41fa 293e e886 89bf 9670 08c0
00000150: e1e8 6dc0 a5fe 78c0 0b10 d93d fe51 313f
00000160: ea68 1ec0 233e e53e 0ea1 d73d 9a2a 36c0
00000170: 2d29 663d 188f 263f 37f7 07c0 dfa6 31c0
00000180: 1a63 343f 2189 a3bf 9b7e e93e d4e7 9ebf
00000190: bac2 eebf d64a babf 6792 0fc0 0ec4 413e
000001a0: a0f8 d53e 2c47 a0be cf42 c3be b276 933f
000001b0: 11db 17bf 2241 64c0 a955 fdbe 766d 7e3e
000001c0: 57a0 11c0 6c8b 0fc0 5052 e83d 52ee 3cc0
000001d0: f780 393f d057 883d aa9b b5bf 8a6c a0bf
000001e0: 7e1e 70bf f517 f63e ca5a 8dbe de77 e7bf
000001f0: 7206 953e 2cf5 10c0 9813 d3bd 70c7 cfbe
00000200: 3406 edbd 6c00 393f a0e0 e6bf b5aa 8ebf
00000210: d95d 92be ebbf aebe 9dca a33d 72cc 03c0
00000220: b145 26be bcde 08c0 1b3f 2e3e 1c23 99bf
00000230: 1aeb 8c3e 3049 e2bf 03af 0abf 4630 a2bd
00000240: aced 473f 6331 5d3f 7f76 4bc0 84b2 95bf
00000250: 22bc dbbf 6981 19c0 759d c63e e0df e7be
-0.6671954 -2.1440103 0.57444227 -2.10727 0.07101382 -0.17250757 -3.2528994 -0.51979953
-0.12678666 0.006909746 -1.9816989 -0.09387258 -0.77413064 -1.1346347 0.46598798 0.72819257
-2.450146 0.3530517 -1.3427793 -1.4977808 0.3201548 -0.036653876 0.32075328 -1.6228523
-2.770792 -1.075712 -0.16449936 0.035730414 0.059752945 0.27112463 -2.4020069 0.09571697
-1.5426118 -1.9504694 0.5617609 1.6086717 -1.9684255 -0.42858353 -2.6983204 0.52132374
-1.6944376 -1.669802 0.5357864 -1.8554392 -2.0353665 1.2817128 -2.141523 -1.0622265
0.40142688 0.6103611 -0.039660208 -1.6741922 -2.065401 -0.12978156 -1.4268166 -0.65393716
0.18205214 0.047067042 -2.3819566 -1.8533027 0.3752952 -2.624691 0.79803133 -1.5913616
-1.3107775 -0.44088098 0.28225935 -4.2441397 0.69259447 -0.6877588 -0.37469268 -2.0635924
-0.7355906 -0.94642216 -1.476686 -3.2506626 -0.30605075 0.78027153 -0.31630734 0.24847594
0.8239971 0.1659937 -1.0744295 -2.1318717 -3.7173388 -3.8905423 0.10598763 0.69265735
-2.4751534 0.4477397 0.105287656 -2.8463502 0.056191612 0.65062094 -2.1244638 -2.77581
0.70463717 -1.2776223 0.45604405 -1.2414498 -1.8653176 -1.4554088 -2.2433107 0.18922445
0.41791248 -0.313043 -0.38136908 1.1520598 -0.59318644 -3.5664754 -0.49479416 0.24846444
-2.2754114 -2.2428846 0.11343825 -2.952046 0.7246241 0.06657374 -1.418813 -1.2533123
-0.9379653 0.48065153 -0.2760833 -1.8083456 0.2910648 -2.264964 -0.103064716 -0.40581846
-0.11573449 0.7226627 -1.80373 -1.1145846 -0.28587225 -0.34130797 0.0799763 -2.0593534
-0.16237523 -2.1385946 0.1701626 -1.196384 0.27523118 -1.7678585 -0.54173297 -0.07919364
0.78097034 0.86403483 -3.1791074 -1.1695104 -1.7166789 -2.3985236 0.38792005 -0.4528799

l3.bias f4 [19]
00000000: d03b 8abc 777d 133d fa02 25be 7a08 843d
00000010: 9018 693e d8bc 0b3f f861 b73c 7205 26bd
00000020: 3a9b a3be b96e d33e 2156 6d3e 8cea 7d3c
00000030: 40b8 2d3c 7e67 c8be 8fe3 e0be 1663 d5be
00000040: 4dd2 05bf a618 193e 37bd d0bc
-0.016874224 0.036008324 -0.16114417 0.06446929 0.22763276 0.5458503 0.022385582 -0.040532537
-0.31954366 0.41295412 0.23177387 0.015497815 0.010603011 -0.39141458 -0.43923613 -0.4167716
-0.5227402 0.14950809 -0.02548085
