Artifical Inteligence Projects/AI ChatBot/Trent Bot/date.pth (torch, 10218 bytes, 6 tensors)

l1.weight f4 [8, 150]
-0.16038913 0.33426157 0.51181394 0.36169493 -0.025590867 0.7031966 0.77892303 -0.50428385
-0.23967114 -1.0024529 0.89159876 -0.48640662 -0.8164158 0.5447892 1.0437603 0.56987154
0.42175972 -0.024546415 0.76349944 0.48618436 -0.14546019 -0.0009901294 -0.45393902 0.2376465
0.62332445 1.0184962 -0.09663483 0.02702997 -0.052201405 0.25767654 0.1316024 -0.21058297
0.71983206 1.2648588 0.51924807 -0.33035052 1.0664471 0.045716915 0.15367804 0.45655486
0.14948697 0.26461798 -0.5919854 0.1727621 0.67101514 0.79692227 1.1638407 -0.029822532
0.7832388 -0.5092057 0.075931095 -0.16374275 -0.4316395 0.7739559 0.14954866 0.6674266
0.8102699 0.5894721 0.7922463 0.39129663 0.19296457 -0.9413198 0.57011646 0.094441794
-1.1106195 -0.10279371 -0.20359986 0.42370287 0.854271 0.82921565 -0.775327 0.6237635
0.72231185 0.28927144 -0.082111344 0.5245511 0.4693254 -0.6779844 -0.14028637 -0.20053409
0.42683077 0.96365863 0.55456764 -0.057435792 -0.9832512 -0.5167209 0.44866055 0.45286727
0.6820121 -0.075577475 0.37241274 0.3332892 -0.56690025 0.029072354 0.22627725 0.26280499
-0.25657532 0.00059330935 -0.45137224 0.52242345 -0.14907645 -0.32822052 -0.58319193 0.389562
0.5691186 0.6373952 0.6028825 0.33335218 -0.27371758 0.5050286 -0.124379665 -0.03387858
-0.33397338 -0.01849672 0.7833399 0.64084584 -0.22942042 0.60057414 0.8785454 -0.46380484
0.33307737 0.7983682 0.45594916 0.21823771 -0.56572944 -1.1893021 0.38981172 0.5251452
0.31843853 -0.9710712 -0.6838937 0.5319772 0.512384 0.2308858 -0.15540293 0.82584715
0.17373408 0.3527836 1.0369444 0.34850043 0.74430513 0.39033216 0.4809979 0.80115306
0.5554423 0.5350685 0.61651826 -0.38896245 -0.5126388 0.66523045 -0.30043653 0.63249433
-0.15669909 -0.09845313 0.46972635 1.0187235 -0.45151892 -0.41119412 0.51298434 -0.83268046
0.18808699 0.93673456 0.05184462 0.47172186 0.67887473 0.48025352 0.65753895 0.5894869
0.42632297 0.21313047 -0.2775078 0.67259717 0.39751765 0.14521378 0.7242774 0.082739726
-0.026863605 -1.1916956 0.13789526 0.46410295 -0.6594889 -0.18243174 0.5032615 -0.12363778
-0.084485315 -0.4727571 0.6552197 -0.14890671 0.56999964 0.3740647 0.69050366 0.5577698
-0.983053 -0.15876332 0.0017126203 -0.54646415 0.5920269 0.003007455 -0.47330335 0.8590613
-0.193984 0.8764085 -0.81621933 -0.47486392 1.1086081 -0.935477 -0.47399873 -0.9150408
-0.4740407 0.6493892 -0.12883557 -0.1934893 0.6607824 -0.21714781 -1.0481178 -0.18361592
0.49463093 0.35397747 0.30288687 0.10428909 -0.5484063 -0.08809801 -0.20858459 0.36090827
-0.15506138 0.016247744 0.6134648 -0.4827665 -0.08379143 0.48635173 0.26590228 0.456792
0.5673751 0.0066002114 0.9379111 -0.21909314 0.54773223 0.24251404 0.73024845 0.92421156
-0.53398156 -0.18096243 -0.25447583 -0.20561318 -0.5711663 0.3717168 0.41769448 0.9088185
0.32613793 0.6909455 -0.14402407 -0.47573715 0.7786028 0.5435702 0.79485196 -0.32574517
00000000: 0c3d 24be 5524 ab3e 3d06 033f 1430 b93e
00000010: f0a3 d1bc b104 343f 8067 473f bf18 01bf
00000020: 5a6c 75be 6050 80bf d13f 643f 4a0a f9be
00000030: a000 51bf 4e77 0b3f f099 853f 1ae3 113f
00000040: e4f0 d73e 9015 c9bc b374 433f 28ed f83e
00000050: 84f3 14be 3bc7 81ba b26a e8be 9b59 733e
00000060: 3192 1f3f 155e 823f 7be8 c5bd f56d dd3c
00000070: 24d1 55bd 2eee 833e c8c2 063e 10a3 57be
00000080: ea46 383f e5e6 a13f 71ed 043f b423 a9be
00000090: 5781 883f a941 3b3d c75d 1d3e 8fc1 e93e
000000a0: 1d13 193e 027c 873e 5b8c 17bf 8ce8 303e
000000b0: a6c7 2b3f 1903 4c3f bbf8 943f 624e f4bc
000000c0: 5782 483f 4e5b 02bf c381 9b3d 2eac 27be
000000d0: daff dcbe f921 463f 4923 193e 78dc 2a3f
000000e0: d96d 4f3f a5e7 163f a7d0 4a3f 0858 c83e
000000f0: 8198 453e 56fa 70bf 27f3 113f b36a c13d
00000100: c828 8ebf 8285 d2bd 7b7c 50be 95ef d83e
00000110: 81b1 5a3f 7a47 543f d57b 46bf f7ae 1f3f
00000120: 6ee9 383f 631b 943e fe29 a8bd fb48 063f
00000130: 6b4b f03e 6390 2dbf 3ba7 0fbe cf58 4dbe
00000140: 9089 da3e 55b2 763f 25f8 0d3f cb41 6bbd
00000150: 5ab6 7bbf d247 04bf d6b6 e53e 38de e73e
00000160: 5898 2e3f 5dc8 9abd e2ac be3e e2a4 aa3e
00000170: 6020 11bf 2529 ee3c 39b5 673e 608e 863e
00000180: d75d 83be 5188 1b3a 431a e7be 8bbd 053f
00000190: 7fa7 18be 850c a8be 114c 15bf ac74 c73e
000001a0: c2b1 113f 552c 233f 8256 1a3f 23ad aa3e
000001b0: b624 8cbe 8e49 013f c4ba febd 44c4 0abd
000001c0: 8ffe aabe 6f86 97bc f788 483f 790e 243f
000001d0: 30ed 6abe 3abf 193f 5ae8 603f d477 edbe
000001e0: 1e89 aa3e dc61 4c3f 2b72 e93e b579 5f3e
000001f0: a5d3 10bf 0d3b 98bf 6795 c73e ea6f 063f
00000200: 600a a33e 1f98 78bf a813 2fbf a82f 083f
00000210: 992b 033f 546d 6c3e f221 1fbe b86a 533f
00000220: 59e7 313e 0da0 b43e 98ba 843f a66e b23e
00000230: c88a 3e3f 9ed9 c73e 5b45 f63e 5e18 4d3f
00000240: 7731 0e3f 40fa 083f 24d4 1d3f 1626 c7be
00000250: 4c3c 03bf 8b4c 2a3f d1d2 99be 26eb 213f
00000260: ba75 20be cba1 c9bd f97f f03e 8865 823f
00000270: 7d2d e7be 0988 d2be f152 033f 8c2a 55bf
00000280: e099 403e d6cd 6f3f 065b 543d 8785 f13e
00000290: bcca 2d3f cae3 f53e 7954 283f 9de8 163f
000002a0: 0147 da3e e03e 5a3e 8115 8ebe 542f 2c3f
000002b0: 6f87 cb3e ecb2 143e 3e6a 393f 7273 a93d
000002c0: 1011 dcbc 7b89 98bf 6a34 0d3e e79e ed3e
000002d0: 44d4 28bf 63cf 3abe bfd5 003f ce35 fdbd
000002e0: a306 adbd 380d f2be 7abc 273f 007b 18be
000002f0: 7feb 113f 6985 bf3e d9c4 303f 00ca 0e3f
00000300: 5da9 7bbf da92 22be 007a e03a 13e5 0bbf
00000310: 138f 173f b918 453b d154 f2be 71eb 5b3f
00000320: bea3 46be 4f5c 603f c0f3 50bf 5d21 f3be
00000330: dfe6 8d3f 6c7b 6fbf f6af f2be 1d40 6abf
00000340: 76b5 f2be 5f3e 263f 79ed 03be 0f22 46be
00000350: 0929 293f ff5b 5ebe b928 86bf d005 3cbe
00000360: 4440 fd3e 893c b53e fd13 9b3e 8595 d53d
00000370: 5b64 0cbf bb6c b4bd 3397 55be f8c8 b83e
00000380: 69c8 1ebe fd19 853c 070c 1d3f 2c2d f7be
00000390: d79a abbd 1803 f93e 5824 883e a4e0 e93e
000003a0: 7f3f 113f 9646 d83b f11a 703f f459 60be
000003b0: 2e38 0c3f 9a55 783e 90f1 3a3f 2199 6c3f
000003c0: 04b3 08bf 374e 39be a84a 82be 438c 52be
000003d0: f437 12bf aa51 be3e 0ddc d53e 54a8 683f
000003e0: 8dfb a63e cee1 303f 0c7b 13be d293 f3be
000003f0: 8352 473f 6b27 0b3f 6b7b 4b3f 12c8 a6be

l1.bias f4 [8]
1.0481817 0.4638219 1.2143683 0.45804173 0.5477919 1.1197581 0.45606872 0.47625524
00000000: d12a 863f 107a ed3e 6c70 9b3f 7284 ea3e
00000010: 173c 0c3f 3c54 8f3f d781 e93e bad7 f33e

l2.weight f4 [8, 8]
-0.7131718 -1.581225 1.0066086 1.5925424 1.5375259 1.0625923 0.94269323 1.0872159
1.0321305 0.90979135 -0.9949285 -0.15384021 1.6800979 0.8482401 -0.030152718 1.2727283
1.5097548 0.85026526 1.3408602 0.3966555 -0.9699336 -0.11926912 1.3712933 -0.76079774
0.54134935 0.7458313 0.18299396 0.25019002 1.182679 0.5740548 -1.6702846 1.8255293
1.0197862 1.9397147 0.0050139087 0.016450042 0.124805115 -0.71186495 1.5342039 0.86888605
1.815692 -0.33584356 1.048098 -1.2068568 -0.8089892 1.6870646 0.2336552 -2.0822985
-1.2127227 0.617872 2.013983 1.3984979 0.92300063 -1.5986757 0.35604814 1.7335589
0.05634173 -2.0680537 0.8397269 0.889711 0.4870867 1.6498052 -0.46730068 -0.31489423
00000000: 6d92 36bf 9565 cabf 8dd8 803f 6ed8 cb3f
00000010: a6cd c43f 0603 883f 5854 713f e429 8b3f
00000020: da1c 843f 16e8 683f a2b3 7ebf 4a88 1dbe
00000030: 730d d73f 4326 593f d502 f7bc c3e8 a23f
00000040: a53f c13f fcaa 593f 4fa1 ab3f 6e16 cb3e
00000050: 924d 78bf 5e43 f4bd 8a86 af3f a4c3 42bf
00000060: df95 0a3f cdee 3e3f c562 3b3e e818 803e
00000070: 0762 973f 41f5 123f e3cb d5bf f2aa e93f
00000080: 5b88 823f 9248 f83f b74b a43b 3dc2 863c
00000090: d399 ff3d c83c 36bf cb60 c43f 516f 5e3f
000000a0: 9868 e83f b0f3 abbe 1328 863f 497a 9abf
000000b0: eb19 4fbf bcf1 d73f 4f43 6f3e 6144 05c0
000000c0: 7f3a 9bbf dc2c 1e3f 19e5 0040 fb01 b33f
000000d0: c549 6c3f 68a1 ccbf f14b b63e 42e5 dd3f
000000e0: 96c6 663d fe5a 04c0 58f8 563f 1ac4 633f
000000f0: 6e63 f93e d12c d33f 0942 efbe d139 a1be

l2.bias f4 [8]
-0.12746063 -0.44706047 0.38433146 0.7804346 -0.038944904 1.1816876 0.4300697 0.7963972
00000000: 0a85 02be 1ce5 e4be 18c7 c43e 90ca 473f
00000010: b184 1fbd 8a41 973f 1932 dc3e b0e0 4b3f

l3.weight f4 [19, 8]
-2.0069106 0.7502219 0.18160312 0.42880666 0.47091195 -0.18341048 -2.230598 -1.7794055
-0.051652394 0.8597012 -0.7368794 -0.08788017 -0.19440879 -0.013127608 -2.0551379 -0.33300978
0.33474207 -2.0151496 0.18352619 -2.808692 -0.3268858 -0.28088886 0.096983746 0.2775147
-2.6425307 -0.1860012 -0.017730735 0.3802201 0.63740885 -1.4017055 0.39128387 -1.6838676
-3.4154043 -0.19804746 0.57086533 0.6305116 -0.8460535 1.0773331 -1.9611095 -0.032398876
0.27190068 -1.004541 -1.22036 0.6722085 -2.0188785 -2.0846949 0.8134408 0.42223626
-0.71131885 -0.5662309 -0.27610832 0.516425 -1.5321863 0.7781086 -1.3995115 0.7139862
0.73521435 -2.4724696 -0.114399284 -1.4960518 -0.5508359 -2.05337 0.6568715 0.2577899
-0.4019918 0.16426706 -0.024264792 -1.1849576 0.39861223 -0.16282652 0.035106897 -1.1760175
-0.17850621 -1.7252487 0.009572016 0.26284495 -0.102943905 -1.5722023 0.92895246 -1.7451897
0.15505238 -0.49274418 -0.18048692 -0.36837617 -0.9654428 -0.4959044 0.19082224 0.27937537
0.119636685 0.6158013 -2.941588 0.8884062 -2.6843553 0.04841365 -2.749649 0.53202343
0.002500739 -0.6453149 0.26660284 -1.4217769 -0.4162534 0.5638703 -1.5247225 0.22601798
-0.9654095 0.3272674 -0.50261164 1.0142658 -0.24623474 -0.705515 -0.30147162 -0.5896226
0.20631623 -0.21139653 -2.0453985 0.39680183 -0.43733138 -0.9214367 0.5339263 -1.1051066
0.3347105 0.78744274 -1.9020739 0.28714687 -0.8093192 -1.7915132 -0.71896535 0.083700284
-0.6981636 -2.9090168 0.75414574 -1.909858 0.45643798 -0.22565225 0.2261777 -1.334825
-1.8565097 -0.5822559 0.89715856 -1.7321471 0.2837959 0.775836 -1.2626975 -2.1809251
0.2626233 0.30976808 -0.32739353 -0.5285583 -0.2204772 -2.24838 0.13911687 -0.4853112
00000000: 3971 00c0 8b0e 403f 2bf6 393e 8c8c db3e
00000010: 5f1b f13e f5cf 3bbe 1ec2 0ec0 8fc3 e3bf
00000020: 7691 53bd 6115 5c3f 21a4 3cbf 85fa b3bd
00000030: 1913 47be 2e15 57bc 6187 03c0 4280 aabe
00000040: 5063 ab3e 36f8 00c0 4aee 3b3e 9cc1 33c0
00000050: 935d a7be aad0 8fbe 6a9f c63d 6816 8e3e
00000060: 391f 29c0 1977 3ebe 0c40 91bc 35ac c23e
00000070: 3a2d 233f 166b b3bf 5c56 c83e f988 d7bf
00000080: fc95 5ac0 f4cc 4abe 3b24 123f 3569 213f
00000090: f696 58bf 0de6 893f a305 fbbf afb4 04bd
000000a0: 9136 8b3e cd94 80bf c234 9cbf db15 2c3f
000000b0: 4e35 01c0 a46b 05c0 a83d 503f 5a2f d83e
000000c0: fe18 36bf 82f4 10bf 125e 8dbe 6e34 043f
000000d0: ae1e c4bf 2032 473f 3123 b3bf cdc7 363f
000000e0: 0237 3c3f f13c 1ec0 2c4a eabd a07e bfbf
000000f0: 9503 0dbf 6a6a 03c0 bb28 283f 0afd 833e
00000100: dfd1 cdbe a035 283e f5c6 c6bc b1ac 97bf
00000110: e716 cc3e ffbb 26be 40cc 0f3d be87 96bf
00000120: 55ca 36be f3d4 dcbf f2d3 1c3c 9d93 863e
00000130: 41d4 d2bd ed3d c9bf d4cf 6d3f 6062 dfbf
00000140: 0dc6 1e3e f748 fcbe 90d1 38be cd9b bcbe
00000150: 4227 77bf 2ee7 fdbe e866 433e 4a0a 8f3e
00000160: 1404 f53d 27a5 1d3f fa42 3cc0 976e 633f
00000170: 7acc 2bc0 644d 463d 40fa 2fc0 b032 083f
00000180: 70e3 233b 5b33 25bf 2b80 883e c9fc b5bf
00000190: 2a1f d5be ce59 103f 1b2a c3bf 4271 673e
000001a0: 1425 77bf 988f a73e 28ab 00bf 76d3 813f
000001b0: f624 7cbe a29c 34bf 7d5a 9abe 82f1 16bf
000001c0: 9044 533e 5578 58be cfe7 02c0 9c29 cb3e
000001d0: e6e9 dfbe 47e3 6bbf 65af 083f 2274 8dbf
000001e0: 2d5f ab3e d995 493f 2877 f3bf ea04 933e
000001f0: 8b2f 4fbf 4e50 e5bf 1d0e 38bf 0e6b ab3d
00000200: daba 32bf 552d 3ac0 b20f 413f 3a76 f4bf
00000210: 3db2 e93e 6211 67be 219b 673e 8cdb aabf
00000220: 1ca2 edbf b90e 15bf 2fac 653f ffb6 ddbf
00000230: b24d 913e 309d 463f 12a0 a1bf 4794 0bc0
00000240: 9076 863e ec99 9e3e 20a0 a7be 994f 07bf
00000250: c6c4 61be 75e5 0fc0 a774 0e3e b67a f8be

l3.bias f4 [19]
0.34353128 -0.24991032 -0.40280282 0.17726626 0.16417731 0.065991916 -0.036298998 0.101008445
-0.20280957 -0.10077144 -0.124597445 0.101385176 0.036415495 -0.043201823 -0.5638464 -0.39269918
0.091667145 0.12547962 -0.0850894
00000000: 55e3 af3e 7ee8 7fbe 2c3c cebe 4985 353e
00000010: 191e 283e c526 873d 42ae 14bd 84dd ce3d
00000020: 50ad 4fbe 4261 cebd f22c ffbd 08a3 cf3d
00000030: 6a28 153d 65f4 30bd 3d58 10bf de0f c9be
00000040: fcbb bb3d bb7d 003e 5a43 aebd
